MODEL SUMMARY

Model: "sequential"
_________________________________________________________________
 Layer (type)                Output Shape              Param #
=================================================================
 resnet50 (Functional)       (None, 7, 7, 2048)        23587712

 average_pooling2d (AverageP  (None, 1, 1, 2048)       0
 ooling2D)

 flatten (Flatten)           (None, 2048)              0

 dense (Dense)               (None, 256)               524544

 dropout (Dropout)           (None, 256)               0

 dense_1 (Dense)             (None, 38)                9766

=================================================================
Total params: 24,122,022
Trainable params: 15,540,902
Non-trainable params: 8,581,120
_________________________________________________________________

DATASET BREAKDOWN

Found 49408 images belonging to 38 classes.
Found 2727 images belonging to 38 classes.
Found 2781 images belonging to 38 classes.

MODEL BATCH SHAPE
…
